{"modelTopology":{"class_name":"Sequential","config":{"name":"sequential_1","layers":[{"class_name":"Dense","config":{"units":100,"activation":"sigmoid","use_bias":true,"kernel_initializer":{"class_name":"RandomNormal","config":{"mean":0,"stddev":0.0012755102040816326,"seed":null}},"bias_initializer":{"class_name":"Zeros","config":{}},"kernel_regularizer":{"class_name":"L1L2","config":{"l1":0,"l2":0.00001}},"bias_regularizer":null,"activity_regularizer":null,"kernel_constraint":null,"bias_constraint":null,"name":"dense_Dense1","trainable":true,"batch_input_shape":[null,784],"dtype":"float32"}},{"class_name":"Dense","config":{"units":30,"activation":"sigmoid","use_bias":true,"kernel_initializer":{"class_name":"RandomNormal","config":{"mean":0,"stddev":0.01,"seed":null}},"bias_initializer":{"class_name":"Zeros","config":{}},"kernel_regularizer":{"class_name":"L1L2","config":{"l1":0,"l2":0.00001}},"bias_regularizer":null,"activity_regularizer":null,"kernel_constraint":null,"bias_constraint":null,"name":"dense_Dense2","trainable":true}},{"class_name":"Dense","config":{"units":10,"activation":"sigmoid","use_bias":true,"kernel_initializer":{"class_name":"RandomNormal","config":{"mean":0,"stddev":0.03333333333333333,"seed":null}},"bias_initializer":{"class_name":"Zeros","config":{}},"kernel_regularizer":{"class_name":"L1L2","config":{"l1":0,"l2":0.00001}},"bias_regularizer":null,"activity_regularizer":null,"kernel_constraint":null,"bias_constraint":null,"name":"dense_Dense3","trainable":true}}]},"keras_version":"tfjs-layers 1.4.0","backend":"tensor_flow.js"},"weightsManifest":[{"paths":["weights.bin"],"weights":[{"name":"dense_Dense1/kernel","shape":[784,100],"dtype":"float32"},{"name":"dense_Dense1/bias","shape":[100],"dtype":"float32"},{"name":"dense_Dense2/kernel","shape":[100,30],"dtype":"float32"},{"name":"dense_Dense2/bias","shape":[30],"dtype":"float32"},{"name":"dense_Dense3/kernel","shape":[30,10],"dtype":"float32"},{"name":"dense_Dense3/bias","shape":[10],"dtype":"float32"}]}],"format":"layers-model","generatedBy":"TensorFlow.js tfjs-layers v1.4.0","convertedBy":null}